models/model.pt (torch, 185410 bytes, 17 tensors)

ticker_embed.weight f4 [10, 16]
-0.2748251 -0.25524217 -0.317456 -0.6782288 -0.46458992 -0.2148408 1.3411033 -0.7144299
-0.036154974 -0.19201976 0.6331268 1.6272863 -0.6401389 -0.9492777 1.1131822 1.3140634
0.08735472 -1.2580848 0.14926045 1.5353404 0.8614429 0.52000314 0.7158595 0.02634774
-1.049912 0.5804382 -0.008004024 -0.66018885 0.6240866 0.34825015 -1.1167225 0.49953625
1.0467649 -1.1462959 -0.8889284 1.3855188 0.34510657 -0.15515718 0.23637596 -0.8461962
0.3527565 0.9318226 0.97601396 0.6560892 0.82423115 -0.43112454 0.5476454 -0.541687
0.1452772 0.63376594 0.09528003 -1.6412594 0.6295258 -0.283872 0.7627113 -0.34244996
-0.3774547 -0.021334134 0.43355304 0.815862 -0.95317984 -0.49556744 -0.026137302 -0.045310456
0.17181297 -0.7802288 1.6653751 -1.3809181 -0.9163203 -0.17278646 -1.4040226 -0.5025323
0.147274 -0.24462587 0.34445822 1.8554821 0.25245416 0.6497519 -0.8546476 -0.75827247
0.39935955 0.026040899 0.11969241 -0.15429711 1.0908091 0.36666796 -0.6836414 -0.054852195
-0.59779036 0.5820485 0.67699856 0.45456666 -0.1190069 0.67214036 -1.1695609 1.5732921
-1.4490781 0.26917878 -0.22428158 1.4710101 0.21480368 0.3866096 0.0012573719 -0.02744219
-1.2727294 -0.79536945 -0.46144822 0.3555607 -0.3486282 0.52706033 -0.0856953 -0.108327806
-0.2699954 -0.33356255 0.53243923 -0.16603063 0.11154054 -0.83005434 -0.33597192 0.16144426
-0.15259781 -0.40448844 1.5621798 0.5498477 1.048518 -0.7677666 0.44290257 -0.26967084
0.05101709 0.19883174 -0.32382524 0.10563559 0.9128117 -0.9025947 -0.9402498 0.04035028
-0.89541477 0.06576317 -0.33328676 0.709313 0.74309546 -0.30807102 0.01828618 0.3917146
0.30372575 1.247114 0.11230076 1.5009738 -0.29034078 0.3231795 -0.51715034 0.078317955
1.5993615 -0.116514005 -0.63327026 -0.38116992 -0.88807565 -1.0812988 0.11376072 0.60757446
00000000: e0b5 8cbe 1aaf 82be 9889 a2be 67a0 2dbf
00000010: bbde edbe 3aff 5bbe 46a9 ab3f e1e4 36bf
00000020: 3d17 14bd d4a0 44be 9914 223f eb4a d03f
00000030: 25e0 23bf dd03 73bf c17c 8e3f 3b33 a83f
00000040: 08e7 b23d ec08 a1bf bbd7 183e 0986 c43f
00000050: 8687 5c3f ed1e 053f 9142 373f 37d7 d73c
00000060: 8463 86bf 9997 143f 4f23 03bc 2302 29bf
00000070: 24c4 1f3f d84d b23e c3f0 8ebf 37c3 ff3e
00000080: 64fc 853f d3b9 92bf d090 63bf ae58 b13f
00000090: cfb1 b03e 86e1 1ebe 8a0c 723e 50a0 58bf
000000a0: 809c b43e ed8b 6e3f 0ddc 793f 76f5 273f
000000b0: d000 533f 5bbc dcbe 7d32 0c3f 00ac 0abf
000000c0: 8cc3 143e 7c3e 223f 2d22 c33d ca14 d2bf
000000d0: 9a28 213f ac57 91be 0c41 433f 9a55 afbe
000000e0: be41 c1be ecc4 aebc aafa dd3e 55dc 503f
000000f0: 9803 74bf 04bb fdbe e51d d6bc 7597 39bd
00000100: bdef 2f3e 13bd 47bf 032b d53f edc1 b0bf
00000110: f893 6abf efee 30be 03b7 b3bf f5a5 00bf
00000120: ffce 163e 347f 7abe d45c b03e 7080 ed3f
00000130: ac41 813e 2456 263f 2fca 5abf 251e 42bf
00000140: db78 cc3e b953 d53c 4b21 f53d 1000 1ebe
00000150: a29f 8b3f e7bb bb3e 1f03 2fbf b2ac 60bd
00000160: ca08 19bf 2101 153f c74f 2d3f f6bc e83e
00000170: e4b9 f3bd 6411 2c3f 2cb4 95bf a361 c93f
00000180: 647b b9bf cdd1 893e 12aa 65be 0f4a bc3f
00000190: 7ff5 5b3e b2f1 c53e 66ce a43a 72ce e0bc
000001a0: cce8 a2bf 559d 4bbf f142 ecbe 0d0c b63e
000001b0: 657f b2be 6ded 063f 0481 afbd f8da ddbd
000001c0: d63c 8abe b6c8 aabe f04d 083f ef03 2abe
000001d0: 5e6f e43d 717e 54bf 8304 acbe a551 253e
000001e0: 9a42 1cbe 1c19 cfbe 82f5 c73f d2c2 0c3f
000001f0: d635 863f 5a8c 44bf 20c4 e23e 4c12 8abe
00000200: 4cf7 503d 8c9a 4b3e 6ccc a5be 7957 d83d
00000210: 07ae 693f 7210 67bf 36b4 70bf 5646 253d
00000220: e739 65bf d7ae 863d 90a4 aabe 8995 353f
00000230: 813b 3e3f 7cbb 9dbe e6cc 953c d18e c83e
00000240: f181 9b3e 6ea1 9f3f f1fd e53d e91f c03f
00000250: 8ca7 94be c977 a53e f763 04bf 2a65 a03d
00000260: e1b7 cc3f e59e eebd 001e 22bf b428 c3be
00000270: ed58 63bf 0068 8abf 61fb e83d 008a 1b3f

gru.layers.0.cell.W_z.weight f4 [64, 69]
0.1025934 -0.007232904 0.14448963 0.23941176 0.33569008 -0.23459682 -0.16054873 -0.29249206
-0.38187832 0.38761654 0.17898425 -0.18336034 -0.11888671 -0.003654418 -0.6508056 -0.18527739
0.09960345 -0.102375 0.30690652 -0.05586401 0.16722621 -0.11526773 -0.17370391 -0.075076446
0.067949265 -0.050455533 -0.35610345 -0.11750411 0.05778506 0.104540855 -0.03377831 -0.035742413
-0.32987404 0.06758021 -0.35197383 -0.11249428 0.4668914 -0.27048162 0.09541248 -0.44185933
-0.38986075 0.37322915 0.05324196 -0.18013711 0.124930136 0.050322395 -0.24710827 -0.25256166
0.08140366 -0.2965259 0.38743418 0.07092206 0.2192761 -0.2133433 0.19178492 0.30447426
0.13930964 -0.023065155 -0.34247842 0.44964275 -0.0506381 -0.08228332 -0.30564764 0.27440348
0.2007219 0.008101582 0.14810564 0.19487962 0.19743448 -0.25587922 0.018758133 0.0082918955
-0.14445755 -0.03502806 0.004746727 -0.15155685 0.0964595 -0.29034355 -0.31856674 -0.13002673
-0.4413732 0.11233514 -0.3133014 0.1432693 -0.052848548 -0.010287132 -0.24862835 0.030836986
0.20994632 -0.10234102 0.11822306 -0.09522053 0.09479519 -0.3036477 0.36653316 0.096161745
-0.09312365 0.13734269 0.31207737 -0.17186789 0.13113378 0.18702464 0.009656364 0.14351457
0.040626403 0.57258636 -0.06502971 -0.061504494 0.19049476 0.090875335 -0.20390958 -0.2130926
-0.050262745 0.1778084 -0.040986445 0.042690247 0.17373607 -0.059830524 -0.26771057 -0.11835601
-0.12539558 0.11713738 0.3445794 0.15929969 -0.18583667 0.1571342 0.20377518 0.051362887
-0.19340882 0.1386122 -0.17245737 0.51904154 0.15989438 -0.018327897 0.058514386 0.1629084
-0.0608777 0.3414341 0.28292623 0.5794218 0.24052209 0.49682313 0.2221199 0.17737368
-0.64384574 0.027212523 -0.36428395 0.367881 0.0022365141 0.5505467 0.06258156 0.56555676
-0.39839938 -0.25067186 0.30601987 0.32978383 0.34792575 -0.514508 0.07259516 0.1627282
-0.7341017 0.2409794 -0.072031535 -1.1829723 -0.59790903 0.06904393 0.30554527 -0.31436682
-0.11054332 -0.22631276 -0.17085871 -0.32755774 -0.6849191 1.0574921 -0.61266243 0.09459234
-0.7256331 -0.4117971 0.17924362 0.084636435 0.5693288 0.28447205 -0.85102624 -0.09872225
-0.28285494 -0.3033523 0.3806543 0.47728008 -0.16238053 0.51128805 0.09132589 -0.29511145
-0.17374709 0.4988607 0.0022952226 -0.25543708 0.21774767 0.25915 0.6903267 -0.023169085
-0.5913873 0.45989403 0.5473749 0.32864314 0.4036928 0.5165651 -0.47282994 -0.42942023
-0.03477727 -0.4131302 -0.096124664 1.202945 0.4042932 -0.094780006 -0.18833996 0.13469002
-0.014634701 -0.058339436 -0.013233527 -0.4371997 -0.36722648 0.63711834 0.12087828 0.4858148
0.23877056 -0.12140206 0.35683894 0.24719265 -0.055099253 -0.17792603 0.09524461 0.1914727
-0.46458334 -0.07269907 0.36657962 0.049270608 -0.310616 -0.5164913 0.27621767 -0.016254818
0.088723086 0.3844089 0.58754134 -0.2238728 0.1997169 0.15776312 0.17889977 0.3699861
0.42468956 0.24441126 -0.37844086 -0.055591024 0.3954166 0.026700059 0.7125104 -0.009906283
00000000: 7d1c d23d ff01 edbb 17f5 133e 5b28 753e
00000010: 92df ab3e 263a 70be e366 24be 85c1 95be
00000020: 8e85 c3be ad75 c63e a647 373e d0c2 3bbe
00000030: e07a f3bd f67e 6fbb 329b 26bf 5bb9 3dbe
00000040: e5fc cb3d fca9 d1bd da22 9d3e a9d1 64bd
00000050: 593d 2b3e 7d11 ecbd 70df 31be aec1 99bd
00000060: fc28 8b3d 76aa 4ebd 3153 b6be ffa5 f0bd
00000070: 07b0 6c3d 8419 d63d 205b 0abd a366 12bd
00000080: 40e5 a8be 7e67 8a3d ea35 b4be 6763 e6bd
00000090: 640c ef3e 917c 8abe 9e67 c33d 633b e2be
000000a0: d49b c7be e417 bf3e 3e14 5a3d dd75 38be
000000b0: 5fdb ff3d db1e 4e3d f309 7dbe c34f 81be
000000c0: f6b6 a63d 3ed2 97be c65d c63e 963f 913d
000000d0: ea89 603e ab76 5abe 4463 443e 0de4 9b3e
000000e0: 30a7 0e3e 23f3 bcbc 5559 afbe 9337 e63e
000000f0: e569 4fbd 2884 a8bd d97d 9cbe 9d7e 8c3e
00000100: 0b8a 4d3e 7fbc 043c 01a9 173e 868e 473e
00000110: 442c 4a3e 9a02 83be a8aa 993c bbda 073c
00000120: aeec 13be 9579 0fbd 6f8a 9b3b b831 1bbe
00000130: 8f8c c53d e9a7 94be 2e1b a3be ba25 05be
00000140: abfb e1be f70f e63d 0b69 a0be 30b5 123e
00000150: b877 58bd 5c8b 28bc 6e98 7ebe d99d fc3c
00000160: 2bfc 563e 2b98 d1bd ef1e f23d fb02 c3bd
00000170: fb23 c23d b677 9bbe 3caa bb3e 73f0 c43d
00000180: 9db7 bebd 90a3 0c3e 9bc8 9f3e 23fe 2fbe
00000190: ef47 063e 6383 3f3e ba35 1e3c 7cf5 123e
000001a0: df67 263d 0595 123f 4c2e 85bd 23ec 7bbd
000001b0: 0f11 433e d91c ba3d accd 50be f234 5abe
000001c0: 4fe0 4dbd 6813 363e 67e1 27bd f8db 2e3d
000001d0: dee7 313e da10 75bd 5c11 89be a364 f2bd
000001e0: b367 00be b9e5 ef3d b66c b03e 751f 233e
000001f0: f84b 3ebe cae7 203e 71aa 503e e461 523d
00000200: f60c 46be 5bf0 0d3e aa98 30be e8df 043f
00000210: 5abb 233e 6324 96bc c8ac 6f3d 76d1 263e
00000220: e55a 79bd 73d0 ae3e b5db 903e fd54 143f
00000230: 6c4b 763e 9a5f fe3e 6673 633e 72a1 353e
00000240: 13d3 24bf ccec de3c 6d83 babe e65a bc3e
00000250: 7b92 123b a1f0 0c3f c32a 803d 54c8 103f
00000260: 01fb cbbe 1058 80be a3ae 9c3e 6dd9 a83e
00000270: 5323 b23e ccb6 03bf c5ac 943d 39a2 263e
00000280: 17ee 3bbf 4ec3 763e 4585 93bd a36b 97bf
00000290: 9110 19bf e766 8d3d 6e70 9c3e b0f4 a0be
000002a0: 8964 e2bd 88be 67be 96f5 2ebe a6b5 a7be
000002b0: dc56 2fbf e75b 873f 72d7 1cbf a1b9 c13d
000002c0: 17c3 39bf 12d7 d2be a48b 373e de55 ad3d
000002d0: 88bf 113f 52a6 913e dbdc 59bf e42e cabd
000002e0: 5dd2 90be fe50 9bbe 1fe5 c23e 0e5e f43e
000002f0: 1547 26be c6e3 023f 1109 bb3d d918 97be
00000300: c2ea 31be ab6a ff3e 726b 163b a6c8 82be
00000310: 3ff9 5e3e 4faf 843e 40b9 303f 18cd bdbc
00000320: 2865 17bf 3b77 eb3e c320 0c3f ea43 a83e
00000330: d3b0 ce3e 9c3d 043f c416 f2be f8dc dbbe
00000340: 9c72 0ebd cd85 d3be 02dd c4bd 1afa 993f
00000350: 85ff ce3e 051c c2bd 31dc 40be 2eec 093e
00000360: 63c6 6fbc 55f5 6ebd 6fd1 58bc a4d8 dfbe
00000370: 1c05 bcbe 301a 233f 088f f73d b8bc f83e
00000380: 4580 743e a5a1 f8bd 98b3 b63e 1220 7d3e
00000390: c1af 61bd 3e32 36be 9b0f c33d 6b11 443e
000003a0: dedd edbe 40e3 94bd 53b0 bb3e facf 493d
000003b0: 0f09 9fbe c638 04bf 676c 8d3e d328 85bc
000003c0: 73b4 b53d 3ed1 c43e 1c69 163f e93e 65be
000003d0: 9682 4c3e a88c 213e 8031 373e d16e bd3e
000003e0: e970 d93e f246 7a3e 00c3 c1be 6ab3 63bd
000003f0: 0b74 ca3e 15ba da3c 1567 363f f64d 22bc

gru.layers.0.cell.W_z.bias f4 [64]
0.538106 0.21779777 -0.26240942 -0.008968042 0.66530025 0.7063468 -0.14562279 -0.26680857
0.22006087 0.13464934 -0.062277623 -0.50402635 -0.4916517 0.5193425 0.698473 -0.10715207
0.1099929 0.16477211 -0.14533259 0.45016414 0.41192108 0.6514657 0.06352263 -0.15632994
0.3439791 -0.16152325 -0.060168613 -0.18574376 -0.07335132 -0.22153036 0.3959366 -0.21261083
0.11692931 0.40840042 0.44546598 0.2644704 0.056069084 0.4407911 -0.1725124 0.10678599
-0.16541405 0.22989665 -0.39460677 1.2578255 -0.17274024 0.78576434 0.29273373 0.09169142
1.078663 -0.12132025 -0.48512292 -0.07699802 -0.31051195 0.04716738 -0.04822806 0.03310769
0.2006251 -0.21118224 0.31814215 1.3361232 -0.26201043 0.70922375 -0.2781653 -0.06340703
00000000: 51c1 093f 6106 5f3e 875a 86be b2ee 12bc
00000010: 1e51 2a3f 25d3 343f 241e 15be 229b 88be
00000020: a357 613e 84e1 093e d216 7fbd df07 01bf
00000030: c6b9 fbbe a1f3 043f 20cf 323f 8b72 dbbd
00000040: f543 e13d 05ba 283e 11d2 14be ea7b e63e
00000050: 52e7 d23e 75c6 263f 2718 823d f514 20be
00000060: 071e b03e 5a66 25be 5d73 76bd 9d33 3ebe
00000070: 3839 96bd dbd8 62be 34b8 ca3e a7b6 59be
00000080: a278 ef3d dc19 d13e 1e14 e43e aa68 873e
00000090: b2a8 653d 5faf e13e 17a7 30be 9db2 da3d
000000a0: 4d62 29be 076a 6b3e e609 cabe 6d00 a13f
000000b0: d1e2 30be da27 493f 32e1 953e b6c8 bb3d
000000c0: a111 8a3f c076 f8bd 0862 f8be 23b1 9dbd
000000d0: 6cfb 9ebe 9532 413d c98a 45bd ee9b 073d
000000e0: ab70 4d3e 2840 58be 87e3 a23e 1606 ab3f
000000f0: 3b26 86be b08f 353f af6b 8ebe 8cdb 81bd

gru.layers.0.cell.W_r.weight f4 [64, 69]
0.12039255 -0.18787864 -0.049901437 -0.124131344 -0.47757655 -0.3328722 -0.08773033 -0.1784779
0.12008016 -0.029413085 0.0806397 -0.15548553 0.1576247 -0.14242733 0.21786198 0.23608619
0.20654617 0.10669439 0.14828388 -0.21653603 0.1067812 -0.00539282 -0.020763407 -0.18064332
0.14999355 0.3302062 -0.034591973 0.2498604 -0.2693009 -0.057562683 -0.04088525 -0.059049405
0.16332555 -0.06569501 0.28642774 -0.108464 0.22181328 0.11861961 -0.13484357 0.15231313
-0.44073007 -0.13412653 -0.22756515 -0.31209627 0.19900624 -0.014040928 0.26486376 0.08246214
-0.17257361 -0.03297021 0.15742157 0.01680313 -0.16820224 0.10844443 0.20849413 -0.15802385
-0.21604536 0.092337064 -0.19507049 0.0021707835 -0.1509188 -0.18029462 0.04242263 -0.20052117
0.2134134 -0.04428496 0.17089918 -0.03794854 0.057104025 -0.09664034 -0.21226469 -0.14915223
-0.24832949 -0.47916862 0.07879931 0.024808485 -0.04058961 -0.26259872 -0.14765494 -0.15757516
-0.29884908 -0.25593418 -0.115855895 -0.17983899 0.22430147 -0.114567555 -0.036217954 -0.11942126
0.004194617 0.08146347 0.3827866 0.31624636 -0.38499728 -0.20696563 0.36829525 0.31923783
-0.023544336 -0.14164735 0.4705097 0.23180954 0.13680153 -0.061538495 0.29094175 0.14212912
-0.5369405 0.5512408 0.036284313 0.24122016 0.08577696 -0.102034144 0.16995247 0.13011335
-0.11512757 0.5658176 0.2217931 0.08327497 -0.0042706407 -0.2807826 -0.011196247 -0.1720764
-0.0012238673 -0.0056897383 0.17772679 0.5079797 -0.3758536 0.31106627 0.16439322 -0.09548797
-0.10504711 -0.1960323 -0.0186945 0.28360617 -0.46263433 -0.52142185 -0.19815433 -0.2217618
-0.1749959 0.4474894 -0.24903478 -0.22759576 -0.09822606 -0.115765534 -0.11772476 0.10607573
0.21577126 -0.2357087 0.20493025 0.24674626 0.10674682 -0.00032700473 0.018458385 -0.20950146
-0.13491553 -0.088350184 -0.1342171 0.090368874 0.057340603 0.015946228 -0.2311972 -0.12904917
-0.21730883 -0.14769146 -0.064644724 -0.21194243 -0.12747782 0.05058254 0.067684144 0.07839368
0.15229344 0.11113349 0.03289117 -0.21515346 -0.20490563 0.03468437 0.06869148 0.059159227
0.25761953 -0.00028460674 0.040423032 -0.17918523 -0.2294607 -0.25371927 0.27743337 0.2077222
-0.10525527 0.27281982 -0.053420503 -0.18186973 0.0637029 -0.111225456 0.061021004 0.20434105
0.27317026 -0.0741868 0.29448506 0.21237552 -0.37238082 -0.0051076435 0.14443268 0.031777326
-0.14711133 0.065170415 -0.09984967 -0.08870448 -0.08309685 -0.13814783 -0.092193715 -0.0106758205
-0.17675215 -0.052787513 -0.1139756 0.085837305 0.3909101 -0.0018068142 -0.07136516 0.2874942
0.17484918 0.3189711 -0.13946752 0.0318099 0.07439843 0.25561127 -0.056478236 0.24578378
0.17820635 0.03370401 0.07039803 -0.020733338 -0.12218994 -0.19898713 -0.20091859 -0.04315243
-0.1629288 0.0690347 -0.08481756 -0.25513914 0.1877749 -0.115217455 0.25524887 0.13005504
0.15777116 0.22996967 -0.03536918 0.08325363 -0.10691175 0.17792892 -0.18310523 0.25008702
0.11918082 -0.09090604 -0.081299916 -0.064352445 0.3430112 0.05131316 0.4003189 -0.32387343
00000000: 5f90 f63d 4263 40be 7365 4cbd 9338 febd
00000010: ea84 f4be 3a6e aabe f6ab b3bd e9c2 36be
00000020: 96ec f53d b6f3 f0bc 6d26 a53d 9937 1fbe
00000030: 5f68 213e 78d8 11be 3617 5f3e 94c0 713e
00000040: d780 533e 9782 da3d bbd7 173e 9fbb 5dbe
00000050: 1ab0 da3d 41b6 b0bb 0518 aabc 90fa 38be
00000060: e997 193e c910 a93e 50b0 0dbd 68db 7f3e
00000070: cfe1 89be d9c6 6bbd 4b77 27bd cadd 71bd
00000080: d03e 273e 1b8b 86bd a8a6 923e 6022 debd
00000090: 0523 633e d7ee f23d 6f14 0abe f9f7 1b3e
000000a0: 5fa7 e1be 7758 09be d706 69be 15cb 9fbe
000000b0: 4bc8 4b3e ec0b 66bc 399c 873e e9e1 a83d
000000c0: 23b7 30be c50b 07bd 1f33 213e b8a6 893c
000000d0: 353d 2cbe 1d18 de3d 7c7f 553e 01d1 21be
000000e0: ff3a 5dbe 371b bd3d 8fc0 47be b443 0e3b
000000f0: 758a 1abe 279f 38be 5ac3 2d3d 6c55 4dbe
00000100: 0b89 5a3e 2564 35bd 3200 2f3e ee6f 1bbd
00000110: e9e5 693d 5feb c5bd ea5b 59be 5dbb 18be
00000120: 164a 7ebe 9755 f5be 8861 a13d 2a3b cb3c
00000130: 4a41 26bd 5773 86be db32 17be 625b 21be
00000140: bf02 99be ce09 83be db45 edbd b627 38be
00000150: 49af 653e 65a2 eabd 4759 14bd 2293 f4bd
00000160: ff72 893b 52d6 a63d 9bfc c33e 0beb a13e
00000170: 5d1e c5be ccee 53be 3291 bc3e 2473 a33e
00000180: 0de0 c0bc 010c 11be a6e6 f03e 7b5f 6d3e
00000190: b315 0c3e ca0f 7cbd 51f6 943e 4c8a 113e
000001a0: ef74 09bf 1e1e 0d3f dc9e 143d 6b02 773e
000001b0: d5ab af3d 47f7 d0bd 0508 2e3e 6f3c 053e
000001c0: 01c8 ebbd 6cd9 103f bb1d 633e 118c aa3d
000001d0: bbf0 8bbb bdc2 8fbe 7770 37bc cc34 30be
000001e0: 2c6a a0ba fc70 babb 03fe 353e f50a 023f
000001f0: e26f c0be 1444 9f3e b256 283e 328f c3bd
00000200: f022 d7bd b1bc 48be 3525 99bc d434 913e
00000210: 68de ecbe e77b 05bf f8e8 4abe 8615 63be
00000220: 2032 33be 551d e53e f902 7fbe dd0e 69be
00000230: bf2a c9bd 7b16 edbd ae19 f1bd 3b3e d93d
00000240: 24f3 5c3e 9f5d 71be 3cd9 513e 0dab 7c3e
00000250: 149e da3d d571 abb9 0a36 973c 8d87 56be
00000260: 4c27 0abe f1f0 b4bd 3570 09be 5113 b93d
00000270: fbdd 6a3d aaa1 823c f5be 6cbe 7725 04be
00000280: 3586 5ebe 6e3c 17be 7464 84bd 7007 59be
00000290: 8c89 02be a32f 4f3d fc9d 8a3d de8c a03d
000002a0: d0f2 1b3e f599 e33d e4b8 063d 3051 5cbe
000002b0: c8d2 51be 3311 0e3d 1eae 8c3d f250 723d
000002c0: b5e6 833e 4537 95b9 9f92 253d 557c 37be
000002d0: bff7 6abe 7ee7 81be bf0b 8e3e 21b5 543e
000002e0: 1390 d7bd 0aaf 8b3e 75cf 5abd 0f3c 3abe
000002f0: ab76 823d 2cca e3bd 29f1 793d c83e 513e
00000300: f9dc 8b3e 40ef 97bd bfc6 963e f878 593e
00000310: b3a8 bebe 055e a7bb 29e6 133e f128 023d
00000320: 5aa4 16be 1178 853d fc7d ccbd b2aa b5bd
00000330: ae2e aabd a076 0dbe 0fd0 bcbd a3e9 2ebc
00000340: 84fe 34be b837 58bd 0a6c e9bd 78cb af3d
00000350: 5e25 c83e a0d2 ecba e627 92bd 7132 933e
00000360: aa0b 333e 2e50 a33e 93d0 0ebe 194b 023d
00000370: 345e 983d 7bdf 823e b955 67bd beae 7b3e
00000380: ba7b 363e 370d 0a3d d82c 903d f6d8 a9bc
00000390: b83e fabd 48c3 4bbe 9abd 4dbe 9ac0 30bd
000003a0: cfd6 26be 1162 8d3d d4b4 adbd 99a1 82be
000003b0: 1048 403e 21f7 ebbd fbaf 823e 262d 053e
000003c0: c38e 213e 2b7d 6b3e 46df 10bd e180 aa3d
000003d0: 8cf4 dabd 0033 363e f07f 3bbe 680b 803e
000003e0: 1315 f43d f22c babd 9280 a6bd 37cb 83bd
000003f0: 2a9f af3e c02d 523d 99f6 cc3e bdd2 a5be

gru.layers.0.cell.W_r.bias f4 [64]
0.066926666 -0.027575675 0.12192748 -0.02125909 0.10827523 0.089971796 0.1609813 -0.033421203
-0.01051784 0.045124903 0.08613596 0.13455814 -0.0039987992 0.00512177 0.039631527 -0.092097566
0.10532438 -0.015798828 -0.1710044 0.0036066205 0.10423326 0.06188305 -0.10502392 0.12058351
0.04534697 0.099639855 0.03865216 0.085167974 0.08816518 0.093512475 0.08266293 0.11483714
0.067278564 -0.02882793 0.067231484 -0.25342107 -0.114114255 0.034004956 0.058432367 0.09715724
0.08710411 0.07587532 0.06918952 0.12708963 -0.048536498 0.13146068 0.085572086 -0.008792267
0.121721394 0.026483625 0.09748971 0.08586409 0.004311243 -0.1004884 0.0016341904 0.060321387
0.03734357 0.05873481 0.089192346 0.1099113 0.23408148 0.11116943 0.07366134 -0.07767765
00000000: d910 893d 62e6 e1bc 1db5 f93d 8b27 aebc
00000010: 67bf dd3d 2243 b83d 48d8 243e ace4 08bd
00000020: 0553 2cbc e4d4 383d 0d68 b03d 9cc9 093e
00000030: 5c08 83bb 85d4 a73b ab54 223d a69d bcbd
00000040: 4fb4 d73d 8b6c 81bc c71b 2fbe 0d5d 6c3b
00000050: 3f78 d53d 1579 7d3d c816 d7bd 7df4 f63d
00000060: bfbd 393d fb0f cc3d ba51 1e3d 8c6c ae3d
00000070: f28f b43d 7883 bf3d 2f4b a93d bc2f eb3d
00000080: 58c9 893d 8d28 ecbc a9b0 893d 68c0 81be
00000090: bcb4 e9bd c848 0b3d c756 6f3d 60fa c63d
000000a0: a463 b23d 8564 9b3d 3cb3 8d3d c923 023e
000000b0: 35ce 46bd a19d 063e 6b40 af3d 710d 10bc
000000c0: 1149 f93d 30f4 d83c afa8 c73d 83d9 af3d
000000d0: 5445 8d3b ddcc cdbd 5532 d63a 8f13 773d
000000e0: 92f5 183d ea93 703d 7aaa b63d 2d19 e13d
000000f0: 0eb3 6f3e ccac e33d c2db 963d 7615 9fbd

gru.layers.0.cell.W_h.weight f4 [64, 69]
-0.08157324 0.18021926 0.15137243 0.123576164 0.0885399 -0.3497985 -0.009163717 -0.31358138
0.18072368 -0.095779926 0.16986857 -0.23941405 -0.005603932 -0.31728053 0.15682021 0.14426617
-0.38576177 0.029536681 -0.25845322 0.18158738 -0.28523403 0.19662397 0.17998837 0.208712
-0.33973265 0.011765103 -0.14665838 -0.27900663 -0.06830725 -0.06820934 0.14426151 0.041576803
0.36536872 -0.079644874 -0.04138021 -0.030730993 0.1485326 -0.054562062 0.14284909 0.07862419
0.027071893 0.08567237 -0.09044687 -0.03190762 -0.11707893 -0.090205215 0.06382901 -0.114877574
0.2099593 -0.14944094 -0.021286743 0.08432222 0.03794139 0.14894392 0.30585027 -0.28211534
0.010769294 0.12411401 -0.14160874 -0.20066552 -0.054333046 0.36246124 0.21025398 -0.36584833
-0.3992485 0.16978206 -0.032336753 -0.27766955 0.20475782 0.13601397 -0.099018276 -0.031063907
-0.25041535 -0.18990208 -0.05159821 -0.19432987 0.20028405 0.10499995 -0.12303288 0.11423017
0.066927135 0.17410962 -0.058180876 0.18343018 0.07131663 -0.040056046 -0.27407432 -0.0038596117
0.2434957 -0.11869886 0.23724294 -0.11980795 0.0294242 -0.32520294 0.14097163 -0.053550135
-0.102190554 0.038835406 -0.15584913 0.0031570538 0.3963434 0.28018874 -0.075385734 -0.04452733
-0.016176159 -0.32457444 0.06663133 0.10082512 0.15858272 0.05643679 -0.35910758 -0.033483244
0.22394457 0.12748915 -0.04248477 -0.049682315 -0.044856288 -0.32267493 -0.11560856 -0.050227493
-0.19507508 0.12584737 -0.2063912 -0.24990879 0.18272834 0.06032864 -0.35421893 -0.23149398
-0.046627443 -0.0069543617 -0.32827237 0.12294311 -0.06866782 0.26815245 0.26939026 -0.24052487
0.2764821 -0.08959133 -0.057371523 -0.15313624 0.35910046 -0.034035075 -0.1838979 -0.10748924
0.22995071 0.08653998 0.026190164 -0.051220536 0.2849323 0.27984273 0.07156925 0.2950222
0.10693396 0.0097321505 0.043748308 0.02038947 0.21619096 0.043987297 -0.15774767 -0.110533394
0.20092812 -0.28154778 0.023543345 0.35875213 0.08078144 -0.40208566 0.14087643 -0.30861837
0.23849784 0.14720856 -0.5726859 -0.0049431594 0.020010311 -0.3378836 0.00848499 -0.28820342
0.18551484 -0.17096248 0.21342108 -0.019262673 -0.16939667 0.1562172 -0.21166688 -0.06674632
-0.028098192 -0.028071085 -0.21935213 -0.06992142 0.21015018 0.2349133 0.14552857 0.3420488
0.37794542 -0.21927032 -0.08801986 -0.05761522 -0.15986586 -0.22400615 -0.24204682 0.0019129943
0.30465963 -0.4524226 -0.17494328 0.3021163 -0.046211246 -0.37505767 0.18168366 -0.21013404
-0.29950294 -0.06008076 -0.073534906 0.065762125 0.4041037 0.055566438 0.0061965548 -0.06057582
-0.16729347 0.29542774 0.25028688 0.15120037 -0.32736024 -0.14630008 -0.25284553 -0.24846329
0.23092061 -0.23889816 0.115630224 0.22297648 -0.2859254 -0.31023106 0.09867755 -0.27249512
-0.14101107 0.09677554 -0.18098323 0.013590332 -0.08708006 0.17579684 0.07778798 -0.34725374
-0.2723907 -0.28660822 0.17248186 -0.03722888 0.1368977 0.03998866 -0.23384422 0.22300354
0.3085212 0.26369822 0.38105008 -0.25967422 0.025106456 0.026949339 0.180224 0.04191017
00000000: df0f a7bd 668b 383e 6001 1b3e 8015 fd3d
00000010: 6854 b53d ca18 b3be 6a23 16bc bd8d a0be
00000020: a10f 393e 4428 c4bd 07f2 2d3e f528 75be
00000030: 30a1 b7bb 9872 a2be 7a95 203e 83ba 133e
00000040: 9182 c5be e9f6 f13c fb53 84be 0bf2 393e
00000050: 320a 92be cb57 493e df4e 383e 99b8 553e
00000060: 70f1 adbe 6bc2 403c 9d2d 16be f5d9 8ebe
00000070: ace4 8bbd 57b1 8bbd 4ab9 133e 704c 2a3d
00000080: 9c11 bb3e da1c a3bd 4c7e 29bd 90bf fbbc
00000090: ee18 183e 787c 5fbd 0847 123e b805 a13d
000000a0: e0c5 dd3c ff74 af3d 353c b9bd 91b1 02bd
000000b0: 14c7 efbd 83bd b8bd c9b8 823d ef44 ebbd
000000c0: 92ff 563e 0c07 19be 8961 aebc 21b1 ac3d
000000d0: 6e68 1b3d c184 183e 6898 9c3e 6c71 90be
000000e0: b171 303c 7c2f fe3d e201 11be 437b 4dbe
000000f0: 548c 5ebd 8594 b93e d24c 573e 7950 bbbe
00000100: 4d6a ccbe 59db 2d3e 8b73 04bd b42a 8ebe
00000110: 09ac 513e 3f47 0b3e 18ca cabd bc79 febc
00000120: 7136 80be b175 42be a558 53bd 69fe 46be
00000130: 4317 4d3e 370a d73d aaf8 fbbd 82f1 e93d
00000140: 1811 893d cb49 323e 124f 6ebd 1fd5 3b3e
00000150: 740e 923d cf11 24bd 7853 8cbe 8af1 7cbb
00000160: f056 793e 6318 f3bd d0ef 723e df5d f5bd
00000170: 050b f13c 0081 a6be de5a 103e 6357 5bbd
00000180: 4849 d1bd e011 1f3d ea96 1fbe 93e6 4e3b
00000190: 86ed ca3e e674 8f3e d663 9abd 4a62 36bd
000001a0: dd83 84bc 9f2e a6be 0276 883d 677d ce3d
000001b0: 8263 223e 432a 673d f3dc b7be ba25 09bd
000001c0: ba51 653e 848c 023e 8304 2ebd af7f 4bbd
000001d0: 3abb 37bd a635 a5be 2ec4 ecbd 58bb 4dbd
000001e0: c3c1 47be 22de 003e 3758 53be 17e8 7fbe
000001f0: 231d 3b3e 2a1b 773d 2f5c b5be c20c 6dbe
00000200: 6bfc 3ebd 6ae1 e3bb 5113 a8be 99c9 fb3d
00000210: b7a1 8cbd 474b 893e 85ed 893e 274c 76be
00000220: 108f 8d3e a97b b7bd 67fe 6abd bfcf 1cbe
00000230: 04dc b73e 5d68 0bbd bb4f 3cbe 5223 dcbd
00000240: 3378 6b3e df3b b13d c18c d63c a0cc 51bd
00000250: a5e2 913e 8c47 8f3e e692 923d 260d 973e
00000260: 3100 db3d 9973 1f3c 6d31 333d d107 a73c
00000270: 2a61 5d3e 062c 343d 9b88 21be 555f e2bd
00000280: 1ac0 4d3e 0827 90be f9dd c03c 5cae b73e
00000290: bd70 a53d 2cde cdbe e941 103e 3a03 9ebe
000002a0: c738 743e d7bd 163e 8b9b 12bf 3afa a1bb
000002b0: aaec a33c 14ff acbe a104 0b3c 668f 93be
000002c0: 9af7 3d3e ca10 2fbe 0e8b 5a3e c1cc 9dbc
000002d0: 5276 2dbe 67f7 1f3e 34bf 58be 4bb2 88bd
000002e0: 2e2e e6bc 55f5 e5bc d89d 60be f632 8fbd
000002f0: 9c31 573e 1d8d 703e 7105 153e 0521 af3e
00000300: 1082 c13e 6688 60be c243 b4bd f0fd 6bbd
00000310: e0b3 23be de61 65be 1fdb 77be 70bd fa3a
00000320: 59fc 9b3e efa3 e7be 5524 33be fdae 9a3e
00000330: 0148 3dbd 8f07 c0be 480b 3a3e 612d 57be
00000340: 7358 99be 3e17 76bd 7899 96bd 4bae 863d
00000350: aee6 ce3e a299 633d 780c cb3b 5a1e 78bd
00000360: fb4e 2bbe 4e42 973e 9a25 803e 45d4 1a3e
00000370: c39b a7be b0cf 15be f874 81be 296d 7ebe
00000380: 7476 6c3e b8a1 74be 8acf ec3d f253 643e
00000390: d064 92be 9bd6 9ebe 7517 ca3d 7b84 8bbe
000003a0: 3565 10be 4132 c63d ab53 39be fca9 5e3c
000003b0: 0857 b2bd 1604 343e 4e4f 9f3d 3ecb b1be
000003c0: cb76 8bbe 50be 92be 169f 303e 4f7d 18bd
000003d0: e92e 0c3e 26cb 233d dc74 6fbe 0a5b 643e
000003e0: 7ef6 9d3e 7403 873e ff18 c33e 05f4 84be
000003f0: 0eac cd3c dcc4 dc3c a48c 383e 00aa 2b3d

gru.layers.0.cell.W_h.bias f4 [64]
-0.09098727 -0.021234017 -0.019144371 -0.08627435 -0.0026023318 -0.03840936 0.0060288166 0.046392035
-0.015400922 -0.06374352 0.043142345 0.04083705 0.09489838 -0.04032017 -0.089856185 0.16573046
-0.09967895 0.063211486 -0.09512684 0.08894718 0.095020816 -0.015648294 -0.008437286 -0.049056306
0.07042567 0.101012856 -0.023039842 -0.037682302 0.03448511 0.05017519 -0.10373418 -0.002286504
-0.013912893 0.07559772 0.047208928 -0.11287723 0.13658619 -0.018625509 -0.08707632 -0.038127266
0.035377074 0.055663873 0.10521568 0.025961889 -0.046481695 -0.025582423 0.00038161478 0.1091677
0.0827107 0.008783179 0.022074457 0.12370232 0.120842606 0.000681609 0.036535304 0.07441894
0.0029448662 -0.121236585 0.039255198 -0.0027182638 0.10219478 -0.0007930171 0.034971245 0.030028956
00000000: 8957 babd f6f2 adbc a8d4 9cbc 9bb0 b0bd
00000010: e28b 2abb 2253 1dbd 618d c53b 9305 3e3d
00000020: 2654 7cbc f68b 82bd 07b6 303d c044 273d
00000030: 155a c23d c326 25bd 8506 b8bd 3fb5 293e
00000040: 7a24 ccbd 0675 813d dcd1 c2bd f029 b63d
00000050: 469a c23d da30 80bc 8b3c 0abc 44ef 48bd
00000060: 553b 903d d4df ce3d 0dbe bcbc c258 1abd
00000070: 4240 0d3d 8084 4d3d 9672 d4bd 2cd9 15bb
00000080: e7f2 63bc fad2 9a3d 265e 413d 2d2c e7bd
00000090: 40dd 0b3e 8694 98bc 1255 b2bd 562b 1cbd
000000a0: 8de7 103d cdff 633d 527b d73d 07ae d43c
000000b0: 9763 3ebd 3b92 d1bc 7813 c839 5193 df3d
000000c0: 3a64 a93d 53e7 0f3c 7ed5 b43c a457 fd3d
000000d0: 547c f73d 01ae 323a 0ba6 153d f568 983d
000000e0: a8fe 403b e34a f8bd 0fca 203d e624 32bb
000000f0: 7f4b d13d 7ae2 4fba 023e 0f3d 49ff f53c

gru.layers.1.cell.W_z.weight f4 [64, 128]
0.24712832 0.07867822 0.18216002 0.30800825 0.027072523 -0.16109899 0.12653174 -0.1516412
0.028918257 0.2587999 0.25840017 0.1399813 0.26243958 -0.1789255 0.002020091 0.059301544
-0.06412825 -0.2868595 0.05615694 -0.34281257 -0.11720783 0.06356216 -0.031974085 -0.022191098
0.067350015 0.46601647 -0.03616709 0.23009151 -0.05378349 0.05898465 -0.13533905 -0.18322226
0.15601735 0.23474543 0.045160033 -0.03409302 -0.32711357 0.0016113522 0.14085859 0.09842082
-0.02639597 -0.14406729 0.3294654 -0.014773309 0.46827936 -0.012785052 -0.0230173 0.02713103
0.13557847 -0.30222505 0.16523975 -0.1938641 0.08672501 -0.0073628197 0.033091124 -0.187269
0.026344925 -0.031030498 -0.12417327 -0.2597702 0.14206591 0.06639905 0.18826437 -0.048503667
0.09566036 -0.0664105 -0.2790212 0.11908847 0.5041804 0.16964906 0.43585768 -0.37544027
0.08526776 -0.350182 0.46978596 0.06513525 0.039250527 -0.079082765 0.33243588 0.050000157
-0.14245497 0.108452626 -0.09106506 0.40719068 0.05115214 0.036562435 -0.07501267 0.05042108
0.092412435 0.175629 0.049371615 -0.02675192 -0.040673833 -0.047059063 0.037026208 0.08615945
-0.30310467 -0.47142544 -0.19867414 -0.3287354 0.20260142 0.33714932 0.19440073 0.07298664
0.036793735 -0.5130961 -0.067881815 -0.009581667 0.09816072 0.29892483 -0.40912202 0.2375545
0.25466946 -0.115840465 0.248987 0.27479 -0.44053915 0.4878388 0.15783198 0.14150302
0.20379902 0.39268285 0.02117617 -0.12620866 0.38591224 0.005658252 -0.26732484 0.17493266
-0.14938898 0.04928179 -0.15813896 0.22794569 -0.043291476 -0.14831123 0.2565282 0.12577258
-0.02688665 0.15396182 0.21944213 -0.1769512 0.1367498 -0.08062885 -0.05792147 -0.092709266
0.26904297 -0.06746749 -0.015523295 0.032572184 -0.06016338 0.02735817 -0.11090969 -0.030961152
0.26172563 0.3078296 -0.047318958 0.08292337 0.020302415 0.09404983 -0.08199329 -0.026290929
-0.04786418 0.21598136 0.10887016 0.013246295 0.0033792935 0.11263544 0.09977371 -0.06947975
0.025276067 0.23653626 0.0844122 -0.21123382 0.27614665 0.12394563 -0.22725096 -0.0072642164
-0.078700796 -0.15534927 0.049746696 -0.29474568 -0.031855818 0.23470701 0.26669586 -0.06936428
0.2884385 0.014578422 -0.24574453 -0.26632938 -0.14991528 -0.049862195 -0.10061633 -0.06524954
0.055002414 -0.09400916 -0.15925024 0.17944166 0.25935817 0.0070639923 0.19896948 0.005177369
0.18306717 -0.11823701 0.23907954 0.3708679 0.15663835 -0.15653656 0.5901255 0.2492819
-0.019211186 -0.20483766 -0.1088937 0.23480631 0.25803307 0.001315449 -0.028830044 0.22523607
0.020248 0.30864772 0.07177962 0.21170312 -0.02639936 0.24000932 -0.0153467925 -0.09329761
-0.3304544 -0.12892324 -0.15715122 -0.30261573 0.093242906 0.007232921 0.1392523 0.09442378
0.13557991 -0.3061268 0.2009991 -0.034428906 0.15613975 0.2068668 0.07713425 0.17205337
0.081275284 0.04744191 -0.1025275 0.28053936 -0.0024744568 0.20103492 0.19072697 -0.11159729
0.28896433 0.37683573 -0.49585882 0.08365001 0.28132847 -0.13615204 -0.09528735 -0.1782126
00000000: 350f 7d3e 0c22 a13d 2888 3a3e 42b3 9d3e
00000010: 32c7 dd3c 22f7 24be 8991 013e d547 1bbe
00000020: fbe5 ec3c 6c81 843e 074d 843e 4257 0f3e
00000030: 7b5e 863e 3f38 37be 8163 043b 2de6 723d
00000040: ac55 83bd 40df 92be d204 663d 2185 afbe
00000050: a90a f0bd e12c 823d 42f7 02bd 1bca b5bc
00000060: ceee 893d b699 ee3e f123 14bd 1c9d 6b3e
00000070: 144c 5cbd e399 713d 5296 0abe 9e9e 3bbe
00000080: 03c3 1f3e 1b61 703e baf9 383d 1fa5 0bbd
00000090: 6e7b a7be 0234 d33a 3c3d 103e db90 c93d
000000a0: 5c3c d8bc 6086 13be b0af a83e c00b 72bc
000000b0: 50c2 ef3e 6578 51bc c78e bcbc e541 de3c
000000c0: 15d5 0a3e 3ebd 9abe 9c34 293e 5084 46be
000000d0: e29c b13d cf43 f1bb 8f8a 073d 72c3 3fbe
000000e0: 50d1 d73c ac33 febc 8e4e febd 9a00 85be
000000f0: ba79 113e 3afc 873d 60c8 403e c8ab 46bd
00000100: 94e9 c33d 3a02 88bd dedb 8ebe a8e4 f33d
00000110: f711 013f 7cb8 2d3e bd28 df3e b539 c0be
00000120: dda0 ae3d 0e4b b3be c987 f03e a165 853d
00000130: 29c5 203d 25f6 a1bd 0935 aa3e f7cc 4c3d
00000140: b7df 11be 691c de3d 5180 babd 4c7b d03e
00000150: e884 513d 7ec2 153d 3ea0 99bd 5686 4e3d
00000160: bb42 bd3d 17d8 333e e439 4a3d d826 dbbc
00000170: 9b99 26bd 01c1 40bd cba8 173d 5e74 b03d
00000180: 8930 9bbe ad5e f1be 3c71 4bbe 0250 a8be
00000190: bf76 4f3e d69e ac3e fc10 473e 057a 953d
000001a0: 07b5 163d 445a 03bf 9f05 8bbd 6dfc 1cbc
000001b0: 7d08 c93d ad0c 993e 7178 d1be 7d41 733e
000001c0: 0964 823e c43d edbd 73f6 7e3e 46b1 8c3e
000001d0: 598e e1be 02c6 f93e b59e 213e 2be6 103e
000001e0: b1b0 503e ba0d c93e a679 ad3c d83c 01be
000001f0: 4a96 c53e dc68 b93b cdde 88be 8c21 333e
00000200: 6df9 18be b4db 493d 2eef 21be 986a 693e
00000210: 6752 31bd e6de 17be aa57 833e 87ca 003e
00000220: 6441 dcbc 2ba8 1d3e 70b5 603e b232 35be
00000230: 2408 0c3e bd20 a5bd 103f 6dbd 5bde bdbd
00000240: 00c0 893e 652c 8abd 6b55 7ebc 696a 053d
00000250: e06d 76bd 3e1e e03c 9f24 e3bd 3ea2 fdbc
00000260: e700 863e d79b 9d3e 86d1 41bd bad3 a93d
00000270: 4051 a63c 339d c03d 19ec a7bd 1360 d7bc
00000280: 3b0d 44bd 382a 5d3e 52f7 de3d fd06 593c
00000290: 2377 5d3b 69ad e63d 2956 cc3d 664b 8ebd
000002a0: c10f cf3c 9036 723e 4ee0 ac3d ae4d 58be
000002b0: 1863 8d3e 35d7 fd3d 7ab4 68be aa08 eebb
000002c0: e22d a1bd e113 1fbe 31c3 4b3d e8e8 96be
000002d0: 3f7b 02bd 0957 703e 5c8c 883e dc0e 8ebd
000002e0: 36ae 933e 55da 6e3c 74a4 7bbe 535c 88be
000002f0: 6483 19be 4d3c 4cbd ef0f cebd 8da1 85bd
00000300: 364a 613d e087 c0bd 7f12 23be 8ebf 373e
00000310: 98ca 843e 1079 e73b a8be 4b3e eba6 a93b
00000320: f675 3b3e 3f26 f2bd 44d1 743e 66e2 bd3e
00000330: ce65 203e 1f4b 20be 7712 173f c143 7f3e
00000340: c760 9dbc f7c0 51be a903 dfbd 1171 703e
00000350: e91c 843e 256b ac3a fc2c ecbc 49a4 663e
00000360: 22df a53c 1307 9e3e 3201 933d b4c8 583e
00000370: 7843 d8bc 01c5 753e 1d71 7bbc d112 bfbd
00000380: 5231 a9be 7404 04be 40ec 20be 73f0 9abe
00000390: 23f6 be3d 2402 ed3b 2898 0e3e 4161 c13d
000003a0: 76d5 0a3e a7bc 9cbe b5d2 4d3e 5305 0dbd
000003b0: 19e3 1f3e e4d4 533e 90f8 9d3d c22e 303e
000003c0: a873 a63d 7352 423d f0f9 d1bd dba2 8f3e
000003d0: 7f2a 22bb 19dc 4d3e ee4d 433e 1f8d e4bd
000003e0: 22f3 933e 9df0 c03e 35e1 fdbe b250 ab3d
000003f0: 490a 903e 716b 0bbe 0426 c3bd 5d7d 36be

gru.layers.1.cell.W_z.bias f4 [64]
-0.58698267 -0.55533725 -0.45210165 -0.25077206 -0.34979114 -0.29347798 -0.42806482 -0.31326362
-0.113621674 -0.45942828 -0.16019271 -0.17075275 -0.36481532 -0.2148062 -0.18233058 -0.2813295
-0.36345643 -0.31701437 -0.5419758 -0.42601088 -0.13272235 -0.28307056 -0.55303586 -0.14296904
-0.12138068 -0.33826393 -0.23816772 -0.26211163 -0.10980274 -0.19404902 -0.23097834 -0.5515258
-0.66229117 -0.40405843 -0.21485208 -0.13673574 -0.21865539 -0.3972168 -0.43621394 -0.35448304
-0.15176907 -0.3021485 -0.10104503 -0.29649034 -0.38114777 -0.4101161 0.057623148 -0.27243978
-0.14823857 -0.08314959 -0.5560743 -0.4628366 -0.45809546 -0.45186004 -0.64659053 -0.3830037
-0.294034 -0.11973418 -0.30885893 -0.54490596 -0.26382264 -0.17582662 -0.26911706 -0.49223363
00000000: 7f44 16bf 952a 0ebf de79 e7be 3265 80be
00000010: d317 b3be bf42 96be 502b dbbe 1764 a0be
00000020: 7bb2 e8bd 2f3a ebbe 8f09 24be cfd9 2ebe
00000030: 13c9 babe 28f6 5bbe deb4 3abe 6c0a 90be
00000040: f616 babe b54f a2be edbe 0abf 191e dabe
00000050: 5ee8 07be a0ee 90be c293 0dbf 7a66 12be
00000060: 6f96 f8bd ee30 adbe 3de2 73be 7f33 86be
00000070: 42e0 e0bd c9b4 46be 9685 6cbe cb30 0dbf
00000080: ea8b 29bf bfe0 cebe 2f02 5cbe 7404 0cbe
00000090: 33e7 5fbe 0060 cbbe 6f57 dfbe cd7e b5be
000000a0: 5a69 1bbe 35b3 9abe b2f0 cebd 95cd 97be
000000b0: cd25 c3be bdfa d1be 4006 6c3d 3a7d 8bbe
000000c0: dacb 17be 554a aabd e35a 0ebf ebf8 ecbe
000000d0: 7d8b eabe 335a e7be f586 25bf 1019 c4be
000000e0: a08b 96be 3237 f5bd c222 9ebe f57e 0bbf
000000f0: c313 87be e50b 34be b6c9 89be 0c06 fcbe

gru.layers.1.cell.W_r.weight f4 [64, 128]
0.08413613 -0.045241114 0.049113184 -0.19524571 -0.23415545 -0.4325561 -0.24882568 -0.1864518
0.14428395 0.11184997 -0.14644817 -0.12078076 -0.1764777 -0.25748426 0.34712222 -0.021026839
-0.022489715 0.3457026 0.14980549 0.10579396 0.16949986 -0.10349615 0.008824646 0.2355583
-0.028133722 0.12044771 0.3880999 0.11668606 0.032646447 0.1424395 -0.11801726 0.15273228
0.048213683 -0.1149161 0.1431795 -0.021456663 0.026635846 0.24865538 0.09786046 -0.008650917
-0.19329758 0.081211135 -0.060139418 -0.033057597 0.16478518 -0.62642264 0.22942849 -0.12811087
-0.079501644 0.025105841 -0.13904172 -0.27775788 -0.021336619 -0.015481895 -0.23401536 -0.30161542
0.2057685 -0.06260267 -0.05865543 -0.24285777 0.24492806 -0.098260194 0.0031719678 -0.09738845
0.06803846 -0.029926885 -0.3677164 0.5924307 0.4165828 0.23657891 0.32959765 0.10738005
0.28619194 0.01797533 0.044685658 -0.036297668 -0.35243827 0.023964213 0.10269431 -0.14020583
0.19752955 -0.14924364 -0.087418295 0.34572378 0.004880635 0.09844908 0.0014802663 -0.04621082
-0.58944124 0.2683823 0.26410377 0.032446407 -0.4055321 0.5170127 0.1386924 0.030246193
-0.53500956 -0.3544996 -0.016400022 0.08908234 0.06269787 0.14845048 -0.08995841 -0.29558977
-0.12342077 -0.19245861 -0.15645845 -0.09101277 -0.13762924 0.1937876 -0.21253464 0.19822146
0.28190994 0.31474352 0.23181434 -0.1494741 -0.0830372 0.44825262 -0.24705352 -0.21499161
0.31796527 -0.1423947 -0.18599649 -0.08477527 -0.14348608 0.40215355 0.07331804 0.14964211
0.021651914 0.25204802 -0.045355715 -0.121434 -0.031211777 0.07179947 -0.07235395 -0.1522793
-0.08616258 -0.20224325 0.021378456 0.006551909 -0.15683776 -0.2802107 -0.03240706 0.07584071
0.0015063437 0.04349838 -0.034464847 0.1678467 -0.14183877 -0.07099569 0.07196116 0.26764047
0.19189443 0.15920064 0.058499802 -0.06277829 0.077424966 0.06363133 0.06796649 0.33833086
0.19472757 -0.062490948 0.114558354 -0.23406217 -0.032499578 -0.02255061 -0.034557402 -0.097270615
-0.13753287 0.08018004 -0.16330332 0.059539575 -0.019725837 -0.41256362 -0.15452586 0.22131126
0.44157708 0.19761588 -0.18079062 0.07871641 -0.13902955 -0.029404057 -0.10935385 -0.25000247
-0.035200737 0.2551735 -0.20058808 -0.23238063 0.2737548 0.0034125731 -0.038819093 0.062229928
0.06270619 0.2552455 0.13189802 -0.13662301 -0.2256934 0.08027785 -0.048944455 -0.12676932
0.03965655 -0.025890436 0.02362062 -0.13418472 0.13349792 -0.40295133 0.12255611 -0.16187029
0.12907526 -0.060351662 0.17622024 0.1461365 0.056001153 -0.032429993 -0.15470955 0.011381434
0.14379391 0.12109164 -0.13054714 -0.29657838 -0.25192854 0.23778027 0.22868307 0.1768324
-0.37536055 -0.025055442 -0.15855068 0.028419869 -0.19787061 0.18638799 0.0731727 -0.09925722
0.027591208 -0.046353895 -0.23708478 0.25312105 0.17394245 0.13714936 0.15419675 -0.043624677
-0.2367251 -0.10062138 0.08244012 -0.15601304 -0.13686323 0.16017286 -0.15865025 0.15956742
-0.036168024 -0.19769925 -0.012211014 -0.25635418 -0.0016269129 -0.17135142 -0.21185258 0.110763356
00000000: 904f ac3d bf4e 39bd e82a 493d 7eee 47be
00000010: 72c6 6fbe fe77 ddbe 29cc 7ebe 38ed 3ebe
00000020: 2cbf 133e 9911 e53d 82f6 15be e75b f7bd
00000030: 92b6 34be fad4 83be 01ba b13e 7a40 acbc
00000040: 5a3c b8bc eeff b03e 9c66 193e 81aa d83d
00000050: 5f91 2d3e caf5 d3bd 3f95 103c 3236 713e
00000060: b178 e6bc 4aad f63d 08b5 c63e 1af9 ee3d
00000070: 48b8 053d a9db 113e 09b3 f1bd da65 1c3e
00000080: b67b 453d 2259 ebbd a69d 123e e2c5 afbc
00000090: 6b33 da3c 849f 7e3e 116b c83d 93bc 0dbc
000000a0: cdef 45be 0652 a63d c054 76bd 6767 07bd
000000b0: 72bd 283e 3c5d 20bf 4def 6a3e 7f2f 03be
000000c0: c2d1 a2bd c4aa cd3c f460 0ebe 4836 8ebe
000000d0: 22ca aebc c6a7 7dbc b9a1 6fbe 566d 9abe
000000e0: fab4 523e d435 80bd ad40 70bd b5af 78be
000000f0: 6cce 7a3e a43c c9bd cae0 4f3b 9873 c7bd
00000100: c057 8b3d 3a29 f5bc 5345 bcbe 8aa9 173f
00000110: 574a d53e be41 723e 06c1 a83e 12ea db3d
00000120: c087 923e 0041 933c 4f08 373d ddac 14bd
00000130: ca72 b4be 9950 c43c 6551 d23d 1e92 0fbe
00000140: 3045 4a3e 53d3 18be 5d08 b3bd b502 b13e
00000150: bced 9f3b ac9f c93d 7f05 c23a 8f47 3dbd
00000160: 9fe5 16bf 6869 893e 9c38 873e 86e6 043d
00000170: e7a1 cfbe f25a 043f 6105 0e3e ddc6 f73c
00000180: 63f6 08bf f980 b5be 5759 86bc cd70 b63d
00000190: be67 803d 6703 183e 1d3c b8bd 8b57 97be
000001a0: 07c4 fcbd df13 45be a536 20be e764 babd
000001b0: aeee 0cbe 4270 463e aea2 59be 91fa 4a3e
000001c0: 8056 903e 1026 a13e bd60 6d3e bd0f 19be
000001d0: 680f aabd 5e81 e53e 99fb 7cbe c326 5cbe
000001e0: 58cc a23e ebcf 11be dd75 3ebe a89e adbd
000001f0: 04ee 12be 12e7 cd3e c527 963d c83b 193e
00000200: 5b5f b13c 700c 813e eac6 39bd 64b2 f8bd
00000210: d7af ffbc 9a0b 933d 4f2e 94bd 1bef 1bbe
00000220: 0276 b0bd db18 4fbe df21 af3c 65b1 d63b
00000230: 149a 20be c777 8fbe 44bd 04bd 6052 9b3d
00000240: 8270 c53a 5b2b 323d 032b 0dbd 01e0 2b3e
00000250: 2f3e 11be 3066 91bd 5f60 933d 2c08 893e
00000260: f97f 443e 7e05 233e 7d9d 6f3d e791 80bd
00000270: fb90 9e3d 2551 823d 0432 8b3d b439 ad3e
00000280: aa66 473e 82f6 7fbd 929d ea3d fead 6fbe
00000290: 471e 05bd 0fbc b8bc 108c 0dbd d135 c7bd
000002a0: 6bd5 0cbe 6f35 a43d fc38 27be c5df 733d
000002b0: 1498 a1bc 8a3b d3be 073c 1ebe 6b9f 623e
000002c0: 6416 e23e d15b 4a3e 2d21 39be 1236 a13d
000002d0: c35d 0ebe c7e0 f0bc e9f4 dfbd 5300 80be
000002e0: a62e 10bd 1aa6 823e f666 4dbe 30f5 6dbe
000002f0: 9729 8c3e 7aa5 5f3b c500 1fbd cfe4 7e3d
00000300: 1a6c 803d 8aaf 823e 4610 073e e7e6 0bbe
00000310: 2c1c 67be b768 a43d fb79 48bd d1cf 01be
00000320: e86e 223d 2e18 d4bc 0880 c13c b867 09be
00000330: aeb3 083e a34f cebe b3fe fa3d 53c1 25be
00000340: 4e2c 043e 4e33 77bd 1473 343e cfa4 153e
00000350: 7761 653d 50d5 04bd 2e6c 1ebe 3279 3a3c
00000360: b63e 133e e5fe f73d 26ae 05be 1fd9 97be
00000370: c7fc 80be ac7c 733e e52b 6a3e 8d13 353e
00000380: 422f c0be 1241 cdbc 1c5b 22be c9d0 e83c
00000390: 989e 4abe 7edc 3e3e 92db 953d 5f47 cbbd
000003a0: f506 e23c 95dd 3dbd 5ac6 72be 1599 813e
000003b0: f81d 323e e270 0c3e c1e5 1d3e caaf 32bd
000003c0: 1168 72be 9512 cebd 5ed6 a83d e2c1 1fbe
000003d0: e025 0cbe 5b04 243e 3675 22be a465 233e
000003e0: ec24 14bd ac71 4abe b410 48bc db40 83be
000003f0: 233e d5ba bf76 2fbe e2ef 58be e6d7 e23d

gru.layers.1.cell.W_r.bias f4 [64]
-0.3234978 0.03248875 -0.011612583 0.005285714 -0.0652256 0.09365808 0.033955663 0.091096364
-0.19430403 -0.1310294 -0.025140688 0.10492561 -0.16599081 -0.11289404 -0.0757292 0.10589743
-0.047060695 -0.04094441 -0.026749127 0.11945891 -0.10435061 0.049492594 0.016175795 0.12684067
0.22353174 0.020255657 -0.016222266 -0.30799383 0.023516225 -0.020490373 -0.06972463 0.13030323
-0.20858477 -0.013441585 0.044616565 -0.15457812 -0.19761102 0.01766602 -0.25755697 0.023109214
-0.029240249 -0.138612 -0.09632982 0.13568075 -0.037760872 0.01359129 -0.022615435 0.01595364
-0.0054370165 0.08799166 -0.08058672 -0.12104887 0.08890506 -0.123048045 -0.0024267188 0.0557066
0.19127457 -0.02558072 0.03573805 -0.11033711 0.014949672 -0.17857336 -0.19748922 -0.100254506
00000000: 81a1 a5be ec12 053d b442 3ebc c833 ad3b
00000010: 0095 85bd cfcf bf3d 1815 0b3d bb90 ba3d
00000020: a3f7 46be 922c 06be d8f3 cdbc 3de3 d63d
00000030: 7ff9 29be fe34 e7bd e917 9bbd c0e0 d83d
00000040: b7c2 40bd 53b5 27bd fc20 dbbc dfa6 f43d
00000050: c6b5 d5bd bfb8 4a3d 1a83 843c 85e2 013e
00000060: 81e5 643e 31ef a53c 8fe4 84bc 5eb1 9dbe
00000070: 19a5 c03c 6ddb a7bc c9cb 8ebd 366e 053e
00000080: 3f97 55be 183a 5cbc dcbf 363d ba49 1ebe
00000090: 8b5a 4abe 54b8 903c 82de 83be 894f bd3c
000000a0: 3f89 efbc 4ef0 0dbe 9248 c5bd e5ef 0a3e
000000b0: 25ab 1abd 01ae 5e3c 0144 b9bc 35b1 823c
000000c0: 0029 b2bb f934 b43d a60a a5bd 78e8 f7bd
000000d0: db13 b63d 9d00 fcbd 9609 1fbb 9b2c 643d
000000e0: 7bdd 433e a88e d1bc 1062 123d 6cf8 e1bd
000000f0: 78ef 743c efdb 36be 9d3a 4abe 3c52 cdbd

gru.layers.1.cell.W_h.weight f4 [64, 128]
-0.13392693 0.09512002 -0.13435125 0.22895578 -0.30546033 -0.06499344 0.0805179 -0.08614765
-0.2259484 0.19624409 0.35673395 0.20611498 -0.069062084 -0.29085526 0.28575614 0.18888724
0.15156202 0.08015186 -0.01614162 0.10081769 0.3705818 0.23681217 0.14760564 -0.21614082
0.16753444 0.07381043 0.007445957 0.022956982 0.21065809 0.19000508 -0.113557346 -0.06778005
0.2289515 0.24527608 0.07824026 -0.2121331 0.077007495 0.09391657 -0.31950006 -0.072863825
0.055346314 0.004789537 0.27285233 -0.25492868 -0.21270204 -0.078139335 -0.17619294 0.008280804
0.35548458 -0.18622898 -0.15786904 -0.19070879 0.09906553 0.031085081 -0.37244955 0.07709847
0.22139475 -0.044748545 -0.25253144 -0.18229663 -0.11123002 -0.25749454 -0.07634031 0.16565444
0.34034166 -0.11041817 0.10070374 -0.067990206 0.13684887 -0.23560794 0.21295539 0.039196894
-0.09615064 0.20292728 0.00813299 0.25011718 -0.16672733 0.07502186 0.04936054 -0.21219093
-0.20689465 -0.18202636 -0.02281469 -0.08095769 -0.18905018 -0.082110494 0.3064339 0.01705313
0.07734753 -0.029860646 -0.10051528 0.07465225 -0.019834045 -0.31981263 -0.19393906 -0.0004066661
0.14937519 -0.053722274 0.27082977 -0.1620839 -0.26202193 0.041990228 0.16251916 0.2762009
-0.093351275 -0.03152193 0.11462663 0.05825474 0.0832272 0.10600406 0.067434356 0.15395878
0.12374913 -0.32074207 -0.013881696 -0.20005886 0.28539252 0.07275973 -0.095064074 0.054358106
0.061721895 -0.19406924 0.23307212 0.5046504 0.08038509 0.08681344 -0.101693794 0.034924228
-0.034322485 0.094428115 0.05709029 -0.1682025 0.02323956 -0.16410962 0.2053219 -0.021877056
0.13521835 -0.09854565 0.1614393 -0.30826405 -0.01095522 0.1971348 -0.13310659 -0.06336986
-0.10846073 0.019139621 -0.044967256 -0.18984552 -0.25836012 -0.09196687 -0.26859334 0.18686214
-0.06476766 -0.20634884 -0.06813696 -0.118145116 -0.061357237 -0.14716023 0.14530335 -0.19335689
0.12408966 -0.19323118 -0.14271702 0.0042433343 -0.2128426 0.13355753 0.15315402 0.08386797
-0.10550515 -0.008645581 -0.14953351 -0.103776105 0.0043549556 0.16833659 0.21975936 0.051731765
0.05405887 0.09061738 0.08451919 -0.055244837 -0.34289944 -0.3076284 0.15954213 0.06768541
-0.08399356 0.25389194 -0.0055378177 0.114098854 -0.025818544 0.25813264 0.010635768 -0.3360273
-0.020984888 0.028408334 0.1663708 0.12389332 -0.12529445 0.11587207 0.12063436 -0.3036727
0.11127002 0.06357119 -0.26504865 0.02987239 -0.14365473 0.15337402 -0.08279409 -0.071096405
0.12012419 -0.061379045 -0.24560556 -0.09631137 0.16387197 0.103429615 0.09230847 -0.0039312467
-0.33725998 0.043386854 -0.07932134 -0.018401371 -0.29038054 0.098398365 -0.046859223 0.08486351
-0.25032255 -0.32232416 -0.035613574 0.07306813 0.13055697 -0.103659645 0.052259322 -0.11222366
-0.0049588927 0.11681202 0.03445899 0.12703203 -0.034066208 0.10819906 0.17764245 0.027712042
-0.1553052 -0.25547656 -0.17333907 -0.10687774 0.11184914 0.22536573 0.06223613 0.12114587
-0.015605482 -0.3360308 0.11516013 -0.1391247 0.17717971 0.11741031 -0.2298799 0.056436867
00000000: 2424 09be 49ce c23d 6093 09be 6273 6a3e
00000010: 4c65 9cbe 481b 85bd 92e6 a43d 2e6e b0bd
00000020: 045f 67be 36f4 483e d5a5 b63e ce0f 533e
00000030: 6c70 8dbd fbea 94be a14e 923e a86b 413e
00000040: 1333 1b3e a926 a43d 6e3b 84bc 8179 ce3d
00000050: e6bc bd3e e47e 723e ef25 173e 0554 5dbe
00000060: 268e 2b3e ec29 973d 37fd f33b 4810 bc3c
00000070: c1b6 573e b190 423e c190 e8bd 44d0 8abd
00000080: 4372 6a3e a729 7b3e 6e3c a03d 6b39 59be
00000090: 1bb6 9d3d 5557 c03d 8395 a3be a139 95bd
000000a0: d1b2 623d 8cf1 9c3b 4db3 8b3e 0386 82be
000000b0: 90ce 59be 8407 a0bd ec6b 34be 36ac 073c
000000c0: 1302 b63e cfb2 3ebe 6ca8 21be 2a49 43be
000000d0: dee2 ca3d 24a6 fe3c b5b1 bebe cde5 9d3d
000000e0: 4eb5 623e 404a 37bd cd4b 81be f8ab 3abe
000000f0: 91cc e3bd 53d6 83be 4f58 9cbd 51a1 293e
00000100: 4341 ae3e ec22 e2bd c33d ce3d 733e 8bbd
00000110: 1c22 0c3e 3543 71be fa10 5a3e ec8c 203d
00000120: a0ea c4bd 2bcc 4f3e 3c40 053c 5c0f 803e
00000130: 92ba 2abe 10a5 993d 472e 4a3d 9448 59be
00000140: 31dc 53be 1e65 3abe dfe5 babc 25cd a5bd
00000150: 5f96 41be 8c29 a8bd e7e4 9c3e 01b3 8b3c
00000160: 6268 9e3d 509e f4bc f5da cdbd 47e3 983d
00000170: 027b a2bc 7bbe a3be f697 46be cd35 d5b9
00000180: cff5 183e e30b 5cbd 33aa 8a3e 52f9 25be
00000190: bd27 86be f2fd 2b3d 6c6b 263e 346a 8d3e
000001a0: f42e bfbd 241d 01bd 5ec1 ea3d 869c 6e3d
000001b0: 0673 aa3d a818 d93d 061b 8a3d 5fa7 1d3e
000001c0: 2f70 fd3d 4e38 a4be 0e70 63bc 3bdc 4cbe
000001d0: f81e 923e 0e03 953d f4b0 c2bd 9ba6 5e3d
000001e0: 19d0 7c3d 16ba 46be 75aa 6e3e c530 013f
000001f0: f0a0 a43d 3fcb b13d d644 d0bd b50c 0f3d
00000200: bc95 0cbd 8763 c13d 82d7 693d 473d 2cbe
00000210: e460 be3c 5a0c 28be e73f 523e 8337 b3bc
00000220: ae76 0a3e 4dd2 c9bd 5850 253e c9d4 9dbe
00000230: 867d 33bc b4dd 493e 184d 08be 0fc8 81bd
00000240: a920 debd b2ca 9c3c 962f 38bd dd66 42be
00000250: c747 84be 2059 bcbd 1185 89be ca58 3f3e
00000260: e8a4 84bd 1c4d 53be 648b 8bbd 11f6 f1bd
00000270: ba51 7bbd 2cb1 16be 67ca 143e 59ff 45be
00000280: b822 fe3d 65de 45be 6924 12be ab0b 8b3b
00000290: 69f3 59be 4ec3 083e 68d4 1c3e f8c2 ab3d
000002a0: 1613 d8bd 32a6 0dbc 501f 19be 9188 d4bd
000002b0: 04b4 8e3b 6d60 2c3e 9908 613e b0e4 533d
000002c0: d56c 5d3d 9b95 b93d 6618 ad3d 6948 62bd
000002d0: 8490 afbe 7881 9dbe 035f 233e a69e 8a3d
000002e0: d104 acbd 20fe 813e 9576 b5bb a9ac e93d
000002f0: 6981 d3bc f629 843e a541 2e3c c50b acbe
00000300: 80e8 abbc 98b8 e83c 1b5d 2a3e c8bb fd3d
00000310: 304d 00be 564e ed3d 260f f73d fd7a 9bbe
00000320: 89e1 e33d 9d31 823d 75b4 87be f1b6 f43c
00000330: 3a1a 13be 140e 1d3e f38f a9bd fe9a 91bd
00000340: ac03 f63d 9868 7bbd 0680 7bbe e53e c5bd
00000350: 0ece 273e e8d2 d33d 390c bd3d b0d1 80bb
00000360: 57ad acbe 6ab6 313d 3a73 a2bd 79be 96bc
00000370: c2ac 94be 1585 c93d 75ef 3fbd eccc ad3d
00000380: 472a 80be ac07 a5be 8adf 11bd bea4 953d
00000390: bab0 053e 824b d4bd df0d 563d 85d5 e5bd
000003a0: 357e a2bb 243b ef3d df24 0d3d af14 023e
000003b0: 0289 0bbd 7897 dd3d e7e7 353e 5d04 e33c
000003c0: 5408 1fbe d3cd 82be cc7f 31be b7e2 dabd
000003d0: 2911 e53d 46c6 663e 50eb 7e3d 531b f83d
000003e0: 23ae 7fbc 3b0c acbe 13d9 eb3d b576 0ebe
000003f0: 996e 353e d174 f03d a365 6bbe 582a 673d
